Examples/TrackML_Quickstart/artifacts/metric_learning/trackml_NN_base/version_0/checkpoints/epoch=2-step=240.ckpt (torch, 46932 bytes, 72 tensors)

network.0.weight f4 [15, 12]
0	0x3d4575de	0.04820811
1	0x3e18347b	0.1486377
2	0x3e97a5c5	0.2961866
3	0xbe5bc53a	-0.21461955
4	0xbe35b532	-0.17744902
5	0x3e1c7c7a	0.15281859
6	0x3dbd33f0	0.09238422
7	0x3e19ebf4	0.15031415
8	0xbdf9f98b	-0.122058
9	0x3e8efbf9	0.27926615
10	0xbcbf83ca	-0.023378272
11	0xbe5a5e01	-0.21324922
12	0x3e741e9d	0.23839803
13	0xbe5b58b6	-0.2142056
14	0x3c2e637b	0.010643835
15	0x3ce641f8	0.028107628
16	0xbe6871f2	-0.22699717
17	0xbe1af73b	-0.15133373
18	0x3da6a944	0.081377536
19	0x3e23b13b	0.15985577
20	0x3c3d6897	0.011560581
21	0xbe4acec0	-0.19805431
22	0x3e005ecc	0.12536162
23	0xbd20e5e3	-0.039281737
24	0xbda44911	-0.08021749
25	0x3d6917f0	0.056907594
26	0xbde5ad8a	-0.112147406
27	0xbe03c6b7	-0.12868772
28	0xbe187607	-0.14888774
29	0xbe63569d	-0.22201009
30	0xbac6b9a1	-0.0015161523
31	0x3d8ec5cc	0.069713205
32	0xbe1e08a3	-0.15432982
33	0xbe9af93b	-0.30268273
34	0xbe63488c	-0.22195643
35	0x3d8c3a50	0.0684706
36	0x3e42e180	0.19031334
37	0xbdf57a53	-0.11986222
38	0xbe10679d	-0.14102025
39	0x3e1621b8	0.146613
40	0x3e619e98	0.22033155
41	0x3e5a8510	0.21339822
42	0xbe3faa4b	-0.18717305
43	0x3e18a997	0.14908443
44	0xbdd986e0	-0.106214285
45	0xbcfe8b2e	-0.031072225
46	0xbe891692	-0.26775032
47	0xbe49c4b8	-0.19703948
48	0xbd9d5ab9	-0.076833196
49	0xbda15012	-0.078766
50	0xbc0c345d	-0.008557406
51	0xbdc64c4d	-0.09682522
52	0xbe81ea2d	-0.25373974
53	0xbc891379	-0.016732918
54	0x3df9dfa6	0.12200861
55	0xbd6ec58d	-0.058293868
56	0x3e5ee090	0.21765351
57	0xbe6af46d	-0.22944804
58	0x3d4add3f	0.049527403
59	0x3e0fc1ba	0.14038745
60	0xbc7e3577	-0.015515677
61	0xbe23951e	-0.15974852
62	0xbe8457b9	-0.25848177
63	0xbd5e9547	-0.05434158
64	0x3ddee068	0.10882646
65	0xbe08db03	-0.13364796
66	0x3e62fa14	0.2216571
67	0xbe0a017b	-0.13477127
68	0x3e8d6740	0.27617836
69	0x3cbbb696	0.022914212
70	0x3d009fb0	0.03140229
71	0x3e49e176	0.19714913
72	0xbe881c29	-0.26583984
73	0x3dfe12f1	0.124059565
74	0xbe7bb6ec	-0.24581498
75	0x3e88fd7e	0.267559
76	0x3d70dee1	0.058806304
77	0x3d830b00	0.063985825
78	0x3e6b809e	0.22998282
79	0xbd34e5b0	-0.04416436
80	0xbdf5fe8f	-0.12011444
81	0x3b81603f	0.003948241
82	0xbe8255e5	-0.25456157
83	0xbdb30b29	-0.08742363
84	0xbe2eeec5	-0.17083271
85	0xbe91ec52	-0.2850061
86	0x3caa2cd1	0.020773323
87	0x3e80aca2	0.25131708
88	0xbe32d8dc	-0.17465538
89	0x3d2197b7	0.039451327
90	0xbe3e1f19	-0.1856655
91	0xbd6ec081	-0.058289055
92	0xbdb44cd1	-0.08803714
93	0xbdf89a4f	-0.12138807
94	0xbd497f7e	-0.04919385
95	0x3db74b12	0.089498654
96	0x3e2f1732	0.17098692
97	0x3e2ba788	0.16763127
98	0x3d79be2e	0.060972385
99	0xbe9aebc8	-0.30258012
100	0xbe1e13af	-0.15437196
101	0x3d3c1dcf	0.045926865
102	0xbe875114	-0.26429045
103	0x3e39e210	0.18152642
104	0xbd93154e	-0.07181798
105	0x3db4ea72	0.088337794
106	0x3e88e3b4	0.26736224
107	0x3de4a825	0.111648835
108	0x3ce7a908	0.028278843
109	0x3c959369	0.018258767
110	0x3da955d5	0.08268324
111	0x3d9bc6b3	0.07606258
112	0xbe7418ea	-0.23837629
113	0x3e8c7c00	0.27438354
114	0x3da1585a	0.0787818
115	0x3d0c709a	0.034287073
116	0x3d91240f	0.07086956
117	0x3e55ec78	0.20890987
118	0xbe8be74e	-0.2732491
119	0x3e831c3d	0.25607482
120	0xbd0fd44c	-0.03511457
121	0xbe6d1888	-0.23153889
122	0xbe551f46	-0.20812711
123	0x3de8ca17	0.113666706
124	0xbe342923	-0.17593817
125	0xbe62bcc9	-0.22142328
126	0x3e2f9321	0.17145969
127	0xbd25b58e	-0.040456347
128	0x3e81ceab	0.25352988
129	0xbe192c0e	-0.14958212
130	0xbe4cf317	-0.20014606
131	0xbe9009a5	-0.28132358
132	0xbe4c81e5	-0.19971426
133	0x3d9eac33	0.07747688
134	0x3e0a4977	0.13504587
135	0x3d825261	0.06363369
136	0xbdc88539	-0.09791035
137	0x3e65371a	0.22384301
138	0xbe5f46c3	-0.21804337
139	0xbbf76c6b	-0.007550766
140	0xbe3d39d0	-0.18479085
141	0x3e7f9565	0.24959333
142	0xbe4ebc57	-0.20189033
143	0x3d8bfb2e	0.06835018
144	0x3e7d7aff	0.2475395
145	0x3e51c880	0.20486641
146	0x3d5e5ce9	0.054287825
147	0x3d81f31f	0.063452
148	0xbe43eb0e	-0.19132635
149	0xbcab32aa	-0.020898182
150	0x3c029c00	0.007971764
151	0x3e0a355c	0.13496917
152	0x3e290c29	0.16508545
153	0x3cd9df7d	0.026595825
154	0x3db73b1c	0.08946821
155	0xbe74ab07	-0.23893367
156	0xbdf7f5fd	-0.121074654
157	0xbd636700	-0.05551815
158	0x3bf11735	0.007357503
159	0xbe6213a4	-0.22077805
160	0xbe8343de	-0.25637716
161	0xbd3a4247	-0.045473363
162	0xbd13b35c	-0.036059722
163	0x3e32baec	0.17454118
164	0xbe6d9319	-0.23200645
165	0xbe638823	-0.22219901
166	0x3e325f15	0.17419083
167	0xbe8ce609	-0.27519253
168	0x3cdbaad5	0.026814857
169	0xbe277aaa	-0.16355386
170	0x3e23f2dc	0.16010612
171	0x3e8180ca	0.2529357
172	0xbddd17fd	-0.10795591
173	0xbe2c2723	-0.16811804
174	0x3e83364c	0.25627363
175	0x3e8531ed	0.26014653
176	0x3e532684	0.20620161
177	0xbd45db31	-0.04830474
178	0xbdb081a8	-0.0861848
179	0x3e2e0488	0.16993916

network.0.bias f4 [15]
0	0x3c9181f3	0.01776216
1	0xbdebe38c	-0.115180105
2	0xbe43f9ad	-0.19138213
3	0xbe125dad	-0.14293547
4	0x3d22b43a	0.03972266
5	0x3ba17fe6	0.0049285768
6	0xbd10b434	-0.035328105
7	0x3e033944	0.12814814
8	0xbe348bfd	-0.17631526
9	0xbe71f47b	-0.23628418
10	0xbc884867	-0.016636087
11	0x3d84c3cb	0.06482657
12	0x3e03feed	0.12890215
13	0x3e584530	0.21120143
14	0x3bb6877a	0.0055703493

network.1.weight f4 [15]
0	0x3f821aa9	1.0164386
1	0x3f7b538a	0.98174345
2	0x3f823fcf	1.0175723
3	0x3f793f05	0.97361785
4	0x3f801e9f	1.0009345
5	0x3f7c619e	0.9858645
6	0x3f7cf235	0.9880708
7	0x3f7a25c5	0.9771388
8	0x3f7c80c8	0.98634005
9	0x3f7b8cc2	0.98261654
10	0x3f7b8b30	0.9825926
11	0x3f7ea747	0.99473995
12	0x3f81cb67	1.0140198
13	0x3f7bbac0	0.9833183
14	0x3f821244	1.0161824

network.1.bias f4 [15]
0	0x3cc4d51a	0.024027396
1	0xbcca6abf	-0.024709104
2	0xbcb8078b	-0.022464534
3	0x3c9c891f	0.019108353
4	0xbcb0b340	-0.021569848
5	0x3a71f60a	0.0009230083
6	0x3c7c4f19	0.015399718
7	0xbcfa457a	-0.030550707
8	0xbc946c0f	-0.018117933
9	0x3cd4c32f	0.025971977
10	0x3c1fbd39	0.009749704
11	0xbc12c457	-0.008957944
12	0x3ceefbcf	0.029172806
13	0x3cb58d56	0.02216212
14	0x3cb34a7d	0.021886105

network.3.weight f4 [15, 15]
0	0xbc9d3396	-0.019189637
1	0x3dd1c77f	0.10243129
2	0xbe6c6fef	-0.23089574
3	0x3e6f0585	0.2334195
4	0xbe75747e	-0.2397022
5	0x3db56217	0.088566
6	0xbdd8f543	-0.10593655
7	0x3e4be109	0.19910063
8	0xbd0a79cf	-0.033807572
9	0x3e8772bf	0.26454732
10	0x3e349276	0.17633995
11	0xbe3b8bef	-0.18315099
12	0x3ddd647d	0.10810182
13	0x3e565031	0.20929028
14	0x3e3f2f96	0.18670496
15	0xbe119b34	-0.14219362
16	0xbe07a61a	-0.13246956
17	0x3d28c92b	0.041207474
18	0x3dca4bef	0.098777644
19	0x3d9232c5	0.0713859
20	0xbe7261a8	-0.23670065
21	0x3ce6c6d0	0.028170973
22	0x3e141774	0.14462072
23	0x3db98b66	0.09059791
24	0xbe88d2bd	-0.2672328
25	0xbd800eb7	-0.06252807
26	0xbe4eb5a9	-0.20186485
27	0x3d39b37c	0.045337185
28	0x3e19251b	0.14955561
29	0xbccab97d	-0.02474665
30	0xbd6a8bc4	-0.057262197
31	0xbc7b3521	-0.015332491
32	0xbe22185a	-0.15829602
33	0xbdd5bb0a	-0.104360655
34	0x3e08f7bd	0.13375755
35	0x3e63b7d3	0.22238092
36	0x3e16eb94	0.14738303
37	0x3e1ac602	0.15114596
38	0xbdeb9751	-0.11503471
39	0x3cf5b888	0.029995218
40	0x3dcee91a	0.10103054
41	0x3e435f13	0.19079237
42	0xbe14f464	-0.14546353
43	0xbe1b52df	-0.15168332
44	0x3d95b0c1	0.07309104
45	0x3dfd387f	0.123642914
46	0xbe3ece60	-0.18633413
47	0xbd2f69d8	-0.04282555
48	0x3cc03240	0.023461461
49	0xbde27108	-0.11056715
50	0xbe659362	-0.22419503
51	0x3df29f38	0.11846775
52	0x3ddec0f3	0.10876646
53	0xbe49dd10	-0.19713235
54	0x3e817a78	0.2528875
55	0xbe6fe255	-0.23426183
56	0x3e849b6e	0.25899833
57	0xbe2c9c2e	-0.16856453
58	0xbe7628d3	-0.2403901
59	0xbe104787	-0.14089786
60	0x3de947cc	0.11390647
61	0x3e851dd1	0.2599931
62	0xbd126d89	-0.035748992
63	0x3cf93985	0.030422935
64	0x3df3d234	0.119053274
65	0x3dd73cd4	0.10509649
66	0x3e538b65	0.20658644
67	0x3d3f41db	0.046693664
68	0xbe310789	-0.1728803
69	0x3dcd666a	0.100292996
70	0x3e200d5a	0.15630093
71	0xbe729ea2	-0.23693326
72	0x3dc5dfcf	0.09661829
73	0x3e405a0b	0.18784349
74	0x3e8a413b	0.27002892
75	0xbe30491e	-0.17215392
76	0xbc052b26	-0.008127963
77	0x3dde3e85	0.108517684
78	0x3d26055e	0.040532462
79	0x3e6cae79	0.23113431
80	0xbe2e2067	-0.17004548
81	0xbe1e409e	-0.15454337
82	0x3df3c5a7	0.119029336
83	0xbcaa9ea1	-0.020827593
84	0x3e47d1e9	0.19513668
85	0xbe5efc15	-0.21775849
86	0xbe810582	-0.25199515
87	0xbe15d30a	-0.14631286
88	0xbd8c19c4	-0.06840852
89	0xbe07f348	-0.13276398
90	0xbe489fa2	-0.19592145
91	0x3e6a566a	0.22884527
92	0x3e8bf741	0.27337077
93	0xbe3baa07	-0.18326579
94	0x3e160051	0.14648558
95	0xbded4c28	-0.11586791
96	0xbc60ce15	-0.013721009
97	0x3e02c948	0.12772095
98	0xbdc8e720	-0.098097086
99	0x3e290fe4	0.16509968
100	0xbe0c9819	-0.13729896
101	0xbe0223c7	-0.1270896
102	0x3d284d3e	0.04108929
103	0x3df05c29	0.11736328
104	0xbe65e5d4	-0.22450954
105	0x3d083e8f	0.033262786
106	0xbe2d47e1	-0.16921951
107	0xbe7d7f64	-0.24755627
108	0x3e41b9f5	0.18918593
109	0xbd7499a9	-0.059716854
110	0x3ce0f3af	0.027459947
111	0xbcbd88b0	-0.023136467
112	0xbd43a337	-0.047763076
113	0x3dfbd29f	0.12296032
114	0xbd8425fb	-0.06452557
115	0x3e072e69	0.13201298
116	0xbe1210d8	-0.14264238
117	0x3e45e4ea	0.19325605
118	0xbc9c9d67	-0.019118024
119	0x3c2fa48d	0.010720384
120	0x3e821071	0.2540317
121	0x3c77403a	0.015090996
122	0x3e54a92c	0.20767659
123	0xbe064901	-0.13113786
124	0xbddd9266	-0.10818939
125	0xbd701ee5	-0.058623213
126	0x3d7c6b7b	0.06162594
127	0xbe8410fd	-0.2579421
128	0x3e262d28	0.16228163
129	0x3df1baba	0.118031934
130	0x3d14c8da	0.03632436
131	0x3dada645	0.08478979
132	0x3d116a61	0.03550184
133	0xbd45ee66	-0.048323058
134	0x3d7ff6e1	0.0624913
135	0x3b52b84f	0.0032153314
136	0xbd1cd156	-0.038285576
137	0x3dfee8e1	0.12446762
138	0xbda431b0	-0.0801729
139	0xbe55a65e	-0.20864245
140	0x3e808881	0.25104144
141	0xbe3bd6c7	-0.1834365
142	0xbdd9e4ba	-0.10639329
143	0xbdbe98ab	-0.09306463
144	0xbe491ec0	-0.19640636
145	0x3e8014af	0.2501578
146	0xbe140881	-0.14456369
147	0x3e298aba	0.16556826
148	0x3e516b1b	0.20451014
149	0x3dcb25ae	0.09919296
150	0x3de125e3	0.109935544
151	0xbe4b538c	-0.1985609
152	0xbe69ca9c	-0.22831196
153	0x3da96432	0.08271064
154	0x3ddb4585	0.10706619
155	0x3e31ad50	0.1735127
156	0xbe1e1aab	-0.1543986
157	0xbcc34b57	-0.023839636
158	0xbe0f7ca0	-0.14012384
159	0x3d3afd76	0.045651875
160	0xbe6145c1	-0.21999265
161	0x3e691dac	0.22765225
162	0x3d882a37	0.06648677
163	0x3e55636a	0.20838705
164	0x3d8e4d76	0.06948368
165	0x3d15dbfd	0.03658675
166	0xbdaf47f6	-0.08558647
167	0x3e0468b6	0.12930569
168	0xbbee364e	-0.007269657
169	0xbd2dc4c0	-0.042423964
170	0x3e877ab0	0.2646079
171	0x3dcecdad	0.10097823
172	0x3e70fdf9	0.23534383
173	0x3e2b2003	0.1671143
174	0xbe86c5a5	-0.26322666
175	0x3de850b1	0.11343516
176	0xbc892bd1	-0.016744526
177	0xbe54f152	-0.20795181
178	0xbe12da7c	-0.14341158
179	0xbdb2b7e7	-0.08726483
180	0xbd9ced29	-0.07662422
181	0xbdc8d1c1	-0.098056324
182	0xbd55ca64	-0.052194968
183	0x3dba381c	0.09092733
184	0xbd1e3266	-0.038622282
185	0xbd72c4e2	-0.059269793
186	0xbcb3cffa	-0.021949757
187	0x3d494659	0.049139354
188	0x3e31337a	0.17304793
189	0xbe2ccd29	-0.16875137
190	0xbe5a8e6a	-0.21343389
191	0xbe460150	-0.19336438
192	0xbe4c61c0	-0.19959164
193	0x3e1623e5	0.1466213
194	0x3e637bc3	0.2221518
195	0x3e048a29	0.12943329
196	0x3d9c4f85	0.07632355
197	0xbca855b8	-0.020548686
198	0x3cf475cb	0.029841324
199	0xbdff84bb	-0.12476488
200	0xbe307235	-0.17231067
201	0x3d58acb7	0.05289909
202	0xbe13c268	-0.14429629
203	0xbba66979	-0.0050784913
204	0xbe09a4b0	-0.1344173
205	0xbd68dfb7	-0.056853976
206	0x3e802640	0.25029182
207	0xbdcff380	-0.10153866
208	0x3d89b70f	0.06724369
209	0xbd90a9a4	-0.070636064
210	0xbe848920	-0.25885868
211	0x3e4c2541	0.19936086
212	0xbcf51d69	-0.02992125
213	0x3d44d287	0.048052337
214	0x3e29b765	0.16573866
215	0x3e5be6b0	0.21474719
216	0x3deedd00	0.11663246
217	0x3e36a867	0.17837678
218	0x3e751cb8	0.23936737
219	0x3d03e801	0.032203678
220	0xbe058df0	-0.13042426
221	0x3de1b7b2	0.11021365
222	0xbdf8358e	-0.1211959
223	0x3c2450a4	0.010028992
224	0x3e57d2a8	0.21076453

network.3.bias f4 [15]
0	0x3e10855a	0.1411337
1	0x3e77ac9c	0.24186939
2	0xbdb971b7	-0.090548925
3	0xbe22ec45	-0.15910442
4	0x3e2a0eba	0.1660718
5	0xbe2da306	-0.1695672
6	0xbd6c65b8	-0.057714194
7	0x3d364021	0.04449475
8	0xbd592616	-0.053014837
9	0x3e187ff2	0.14892557
10	0xbcf95fac	-0.030441128
11	0x3cadfcb7	0.021238668
12	0x3e4ace73	0.19805317
13	0xbe301f51	-0.17199446
14	0x3d8236ea	0.0635813

network.4.weight f4 [15]
0	0x3f821c15	1.016482
1	0x3f821b3e	1.0164564
2	0x3f7a7765	0.9783843
3	0x3f7d78aa	0.99012244
4	0x3f7a045a	0.9766289
5	0x3f83b769	1.0290347
6	0x3f82ac39	1.0208808
7	0x3f80e1ee	1.0068948
8	0x3f7ccb96	0.9874815
9	0x3f7c345c	0.98517394
10	0x3f7f8e5f	0.99826616
11	0x3f833523	1.0250591
12	0x3f7b8ae7	0.98258823
13	0x3f7ac016	0.9794935
14	0x3f7a1d43	0.977009

network.4.bias f4 [15]
0	0x3c92c813	0.017917668
1	0xbd003180	-0.031297207
2	0xbbcc6612	-0.0062377537
3	0x3c51c88f	0.012804165
4	0x3c98a595	0.018633643
5	0xbc91d9a3	-0.017803973
6	0xbca83c82	-0.020536665
7	0x3ca4b14f	0.020104079
8	0xbbe0df86	-0.0068625836
9	0xbc8155a4	-0.015787907
10	0x3d100314	0.035159186
11	0xbc9b9bb4	-0.018995143
12	0x3ce2f066	0.027702522
13	0xbc459d03	-0.01206136
14	0xbc94ce11	-0.018164666

network.6.weight f4 [15, 15]
0	0x3e28ce6e	0.16484997
1	0x3d66c37b	0.05633877
2	0xbe4e6c69	-0.20158543
3	0xbdc28e97	-0.09499853
4	0x3d538229	0.051637802
5	0x3cce4b08	0.025182262
6	0x3e195f87	0.14977847
7	0x3d848555	0.064707436
8	0x3b4c63ba	0.0031187371
9	0xbcabf20c	-0.02098944
10	0xbe39a548	-0.18129456
11	0xbdd41f19	-0.10357494
12	0x3e5aa455	0.2135175
13	0xbdc711f4	-0.09720221
14	0x3e02f786	0.12789735
15	0xbd0646a4	-0.032782212
16	0xbdd7cde6	-0.10537319
17	0x3da26615	0.07929627
18	0xbe4e3954	-0.20139056
19	0xbd1d7c1e	-0.038448445
20	0xbd31ff56	-0.043456398
21	0x3daf9501	0.08573342
22	0xbdb09be4	-0.08623484
23	0xbd27aabe	-0.040934317
24	0x3ddeb95a	0.10875197
25	0x3e86016c	0.2617296
26	0xbdc659de	-0.096851096
27	0x3b11cca8	0.0022247229
28	0xbe5aafce	-0.21356127
29	0x3d5f6886	0.05454304
30	0xbdd5e7b7	-0.10444587
31	0xbe3843fe	-0.17994687
32	0xbe0d87dd	-0.13821359
33	0xbe35aa41	-0.17740728
34	0x3da45e10	0.080257535
35	0xbd80ba27	-0.06285506
36	0xbe04bd15	-0.12962754
37	0x3cd6b755	0.026210466
38	0x3dff9fcf	0.12481653
39	0x3e5354e4	0.20637852
40	0x3e87853c	0.26468837
41	0x3caf660d	0.021410966
42	0x3df891c6	0.12137179
43	0xbd1e957e	-0.038716786
44	0xbe2f4854	-0.17117435
45	0xbe8f65d1	-0.28007367
46	0x3d9874ec	0.07444176
47	0xbd836cb5	-0.064172186
48	0xbdc254ee	-0.09488855
49	0x3ba7f788	0.0051259436
50	0x3dccbba0	0.09996724
51	0x3e8d9813	0.27655086
52	0x3e3936f7	0.18087374
53	0xbdbc8b27	-0.09206229
54	0x3e154a2a	0.14579073
55	0x3cbcc935	0.023045162
56	0x3d23cf87	0.039992835
57	0xbcccab6f	-0.02498409
58	0xbe56a4e8	-0.20961344
59	0x3d335c48	0.043789178
60	0xbdd0f66c	-0.10203251
61	0xbdef5917	-0.116869144
62	0x3d749e57	0.059721317
63	0x3dc35094	0.095368534
64	0xbe116606	-0.14199075
65	0x3d43e99e	0.047830217
66	0xbdd528e1	-0.10408188
67	0x3e6d6a13	0.23184995
68	0xbe6f88c7	-0.2339202
69	0xbe42c4e4	-0.1902042
70	0x3ccd29e6	0.025044393
71	0x3e06568f	0.13118957
72	0x3d5011ac	0.050798103
73	0x3db60556	0.088877365
74	0xbe218ea3	-0.15777068
75	0xbdc34d01	-0.09536172
76	0x3ddd4b66	0.10805397
77	0xbe6f1a45	-0.23349865
78	0x3e3704b4	0.17872888
79	0xbde552b2	-0.111974135
80	0x3e85330e	0.26015514
81	0xbe072e29	-0.13201202
82	0xbd705666	-0.058676146
83	0xbe24e06c	-0.16101235
84	0xbd259c7e	-0.040432446
85	0xbe7aff35	-0.24511416
86	0x3e329a25	0.17441614
87	0x3d0de920	0.034646153
88	0x3dd1d6b8	0.102460325
89	0xbe4e199f	-0.20126961
90	0xbd2a514f	-0.04158145
91	0x3d83bcb6	0.06432478
92	0xbe14484a	-0.14480701
93	0xbbd51aba	-0.00650343
94	0xbe6d96f4	-0.23202115
95	0x3e8d672c	0.27617776
96	0x3e231fc1	0.15930082
97	0x3bc66ad6	0.0060552163
98	0x3e402fba	0.18768206
99	0x3e128846	0.14309797
100	0x3b75d3da	0.0037510307
101	0x3e20d90a	0.15707794
102	0x3e676d61	0.22600318
103	0x3d81917c	0.06326577
104	0x3e86c50a	0.26322204
105	0xbe304bfa	-0.17216483
106	0xbdcd908a	-0.10037334
107	0x3e5d328c	0.21601313
108	0xbe2dd29e	-0.16974875
109	0xbd257e20	-0.040403485
110	0x3e5c9c6d	0.21544047
111	0x3e84a757	0.2590892
112	0xbe451f2e	-0.19250175
113	0xbcdda0c8	-0.027054206
114	0xbd1a3e70	-0.0376572
115	0x3e3a6799	0.18203582
116	0x3e8a03b9	0.26955965
117	0xbe680805	-0.22659309
118	0x3dc70ceb	0.09719261
119	0x3e3eda01	0.1863785
120	0x3e096ef3	0.1342123
121	0x3e5317fa	0.20614615
122	0x3e15b140	0.14618397
123	0x3e686917	0.22696339
124	0xbe23f34e	-0.16010782
125	0xbc32160a	-0.010869512
126	0x3cebe562	0.028795902
127	0xbe293381	-0.16523553
128	0x3dcdf73e	0.10056923
129	0x3d9f94fe	0.0779209
130	0xbdc9be4e	-0.09850751
131	0x3c7a8411	0.015290276
132	0xbe3a9d54	-0.18224078
133	0xbdb92f59	-0.09042234
134	0xbe0cf993	-0.1376708
135	0xbdcb9b45	-0.09941725
136	0x3dacf19f	0.08444523
137	0xbc5baeb0	-0.013408348
138	0x3e51697c	0.20450395
139	0xbe462d72	-0.19353274
140	0x3e842182	0.25806814
141	0x3e6eb883	0.23312573
142	0xbd6f9f0e	-0.058501296
143	0xbc4377a9	-0.011930385
144	0x3da9666f	0.08271491
145	0xbbc7264a	-0.0060775625
146	0x3d241ebc	0.040068373
147	0xbe02c34b	-0.12769811
148	0x3c843e03	0.01614285
149	0xbe7d410d	-0.24731846
150	0x3d6b7fa0	0.05749476
151	0xbd8646fd	-0.06556509
152	0xbe10ced4	-0.14141399
153	0x3cdc2310	0.026872188
154	0xbd9fbea9	-0.078000374
155	0x3d858a46	0.06520514
156	0xbe0e3327	-0.138867
157	0x3de185c1	0.1101184
158	0xbd4ac6a9	-0.049505863
159	0xbe78ca9f	-0.24296044
160	0xbe5b7807	-0.21432506
161	0x3c1cfb33	0.009581375
162	0x3e443e87	0.19164477
163	0x3cc9c003	0.024627691
164	0x3e2304ad	0.15919752
165	0x3e2874eb	0.1645085
166	0xbd83e08d	-0.06439314
167	0x3d12ddc5	0.035856027
168	0x3e2bc339	0.1677369
169	0x3dd75ba0	0.10515523
170	0x3dce5575	0.100748934
171	0x3e43ac0b	0.19108598
172	0xbddedf93	-0.10882487
173	0x3dac436a	0.08411296
174	0x3e429086	0.19000444
175	0xbe36090e	-0.17776892
176	0x3ce1e8d8	0.027576849
177	0x3e0a3360	0.1349616
178	0x3e11b832	0.14230421
179	0x3b6986ae	0.0035633254
180	0xbe07297f	-0.13199423
181	0xbd77e900	-0.06052494
182	0x3dfef967	0.124499135
183	0x3e270fe5	0.16314657
184	0x3e57d9e8	0.21079218
185	0xbd36241c	-0.04446803
186	0x3e22d01a	0.15899697
187	0x3e072138	0.13196266
188	0xbe0f10da	-0.13971272
189	0xbdda3557	-0.10654705
190	0x3d8abacd	0.06773911
191	0xbe5ea29c	-0.21741718
192	0x3d99cd0d	0.075098135
193	0x3df91e3b	0.12163969
194	0xbe0dd349	-0.1385013
195	0x3e7db518	0.24776113
196	0xbdf34868	-0.11879045
197	0x3d42cf12	0.04756076
198	0x3da883a3	0.08228233
199	0x3e62f3c0	0.22163296
200	0xbe24c4c2	-0.16090682
201	0xbe70b4ab	-0.2350642
202	0x3e87f913	0.26557216
203	0x3c4f89e3	0.012667152
204	0x3e18bba1	0.14915325
205	0x3e6dc7de	0.23220775
206	0x3dcb7748	0.099348605
207	0x3baa82da	0.005203587
208	0x3e828a61	0.254962
209	0x3d50548d	0.050861884
210	0xbcec828c	-0.028870843
211	0x3d9ad003	0.07559206
212	0x3df29631	0.11845053
213	0x3e4a0f36	0.19732365
214	0x3dba9c33	0.09111824
215	0xbd9b2329	-0.07575066
216	0xbd914072	-0.0709237
217	0x3e889185	0.26673523
218	0x3e74054a	0.23830143
219	0xbdf39442	-0.11893512
220	0x3dc7eb85	0.09761719
221	0x3e58de6a	0.21178594
222	0x3da67240	0.0812726
223	0xbe4d11b6	-0.20026287
224	0xbe19ba24	-0.15012413

network.6.bias f4 [15]
0	0x3e693657	0.22774635
1	0xbe63f83c	-0.22262663
2	0xbd47cbaf	-0.048778232
3	0x3d2660bb	0.040619593
4	0xbdbed4c6	-0.09317927
5	0xbce683d0	-0.028139025
6	0xbe190f14	-0.14947158
7	0xbe2fb65e	-0.17159411
8	0x3e15ad64	0.14616925
9	0xbdf708bc	-0.12062213
10	0x3d5bc80f	0.053657588
11	0x3dc0566e	0.09391485
12	0x3e86d907	0.26337454
13	0xbdcb3ec1	-0.09924079
14	0x3e701143	0.23444085

network.7.weight f4 [15]
0	0x3f814d33	1.0101684
1	0x3f7a3fa4	0.9775336
2	0x3f7be306	0.98393285
3	0x3f7b6fb1	0.982173
4	0x3f7b7e66	0.98239744
5	0x3f7b7695	0.98227817
6	0x3f7f1293	0.99637717
7	0x3f828b55	1.0198771
8	0x3f79c2bf	0.97562784
9	0x3f7bc03a	0.9834019
10	0x3f804bab	1.0023092
11	0x3f7b00d2	0.98048127
12	0x3f828018	1.0195341
13	0x3f81fb11	1.0154744
14	0x3f7e6e1f	0.9938678

network.7.bias f4 [15]
0	0x3ca09797	0.019603534
1	0xbc6021f2	-0.013679968
2	0xbb9b060d	-0.004730946
3	0xbcbaaa4c	-0.022786282
4	0x3cb9509c	0.022621445
5	0xbccd6056	-0.02507035
6	0xbc45a456	-0.0120631065
7	0xbc9f4f76	-0.01944707
8	0x3bb4ded9	0.0055197296
9	0x3c56775f	0.013089984
10	0xbc741743	-0.014898124
11	0xbc5bc2ab	-0.013413112
12	0x3c7b0bfb	0.015322681
13	0x3c7a77b7	0.015287331
14	0x3c76f01e	0.015071897

network.9.weight f4 [15, 15]
0	0xbcf436d6	-0.029811304
1	0xbe6081d7	-0.2192453
2	0xbe42b6bd	-0.19015022
3	0x3e3cca54	0.18436557
4	0xbe130996	-0.14359125
5	0xbc623d0e	-0.013808502
6	0x3d1a1a77	0.037622895
7	0xbdc6c42a	-0.09705384
8	0x3d06f89a	0.03295193
9	0xbe1543b2	-0.14576605
10	0xbd9dd2ba	-0.077062085
11	0x3cb476ac	0.022029243
12	0x3e1ad506	0.15120324
13	0xbb98d16b	-0.0046636364
14	0x3e76beb6	0.24096188
15	0xbe47cdc3	-0.19512086
16	0x3ddd6687	0.10810571
17	0xba843592	-0.0010086766
18	0x3dd3a290	0.10333741
19	0xbd55ca30	-0.052194774
20	0xbd5762d5	-0.052584488
21	0xbe05a0f2	-0.13049677
22	0xbdd987b0	-0.106215835
23	0x3e5bce6b	0.21465461
24	0xbd6088cc	-0.05481796
25	0x3e631a35	0.22177966
26	0x3e2bddb4	0.16783792
27	0xbe375fa4	-0.17907578
28	0xbdcd12a3	-0.1001332
29	0x3c4cb440	0.012494147
30	0x3d344e40	0.044019938
31	0x3e566041	0.20935155
32	0xbe5eb883	-0.21750073
33	0x3d82dbc1	0.06389571
34	0x3dcf38eb	0.10118278
35	0x3e045d50	0.12926221
36	0x3de30364	0.11084631
37	0xbc815399	-0.015786933
38	0xbe623855	-0.22091801
39	0xbe6780ad	-0.2260768
40	0xbd435ab1	-0.047693912
41	0x3b29bad9	0.0025898723
42	0xbdb42e83	-0.08797934
43	0xbe1d4f4d	-0.15362282
44	0xbd9265a6	-0.07148294
45	0x3e4bc051	0.19897582
46	0xbe1de2cf	-0.15418552
47	0xbd4a87bf	-0.049445864
48	0xbe07dc9a	-0.13267747
49	0x3e11a1c4	0.14221865
50	0xbe8c1d1d	-0.27365962
51	0x3b96dbcb	0.004603838
52	0x3e6978f0	0.2280004
53	0xbc22d74b	-0.009939025
54	0xbdbf772d	-0.09348903
55	0xbcd22917	-0.025654359
56	0xbe30af90	-0.17254472
57	0x3e84599c	0.25849617
58	0x3ca22378	0.019792303
59	0x3e038da5	0.12847002
60	0xbe86476d	-0.2622637
61	0xbe507b73	-0.20359592
62	0x3e6852bf	0.22687815
63	0x3ddb8e7f	0.10720538
64	0x3c9f3c25	0.019437859
65	0x3cc7aac1	0.024373414
66	0x3d7c8e41	0.0616591
67	0x3e305dfd	0.17223354
68	0xbcb5e3d5	-0.022203365
69	0x3cdb3487	0.026758445
70	0xbde5e66f	-0.11225592
71	0x3e52168c	0.20516413
72	0xbe28c0c8	-0.1647979
73	0x3bce7094	0.0063000415
74	0x3ce035cb	0.0273694
75	0x3e7294a2	0.23689511
76	0xbd0796de	-0.033102863
77	0xbd6e49a2	-0.05817569
78	0x3e5a3c8d	0.21312161
79	0xbe1f0fa5	-0.15533312
80	0x3e8d2e86	0.27574557
81	0xbe011943	-0.12607293
82	0x3e1b7bae	0.15183899
83	0x3d33b6ba	0.043875434
84	0xbcc07d62	-0.023497287
85	0xbe6cf702	-0.23141101
86	0xbe6e41a6	-0.2326723
87	0x3ca520c9	0.020157235
88	0xbe3997ae	-0.18124267
89	0xbe6d2864	-0.23159939
90	0x3e41034c	0.18848914
91	0x3dc41d86	0.09575944
92	0x3a9bfcf3	0.0011900946
93	0x3e4cd74a	0.20004001
94	0x3e1566a5	0.14589937
95	0x3e8cb4e4	0.2748176
96	0x3df408a5	0.11915711
97	0x3df973a4	0.1218026
98	0xbe0b323d	-0.13593383
99	0x3dd28f5b	0.10281249
100	0x3dc9e370	0.098578334
101	0xbe2bb923	-0.16769843
102	0x3e413d44	0.18871027
103	0xbd0f799f	-0.035028096
104	0xbdf7975a	-0.12089415
105	0x3e714583	0.23561673
106	0x3d799a0a	0.06093792
107	0xbe71bed5	-0.23607953
108	0xbe532bf7	-0.2062224
109	0x3e1c37c5	0.1525565
110	0xbe024832	-0.12722853
111	0xbe32967a	-0.17440215
112	0xbe16f478	-0.14741695
113	0x3d89a315	0.067205586
114	0xbbc221ef	-0.0059244554
115	0x3da42cd7	0.08016365
116	0x3e70dd64	0.23521954
117	0xbe4b626d	-0.19861765
118	0x3e731481	0.2373829
119	0x3e7ae0e0	0.24499846
120	0x3c32cc3d	0.010912952
121	0x3e285ad9	0.16440906
122	0xbe47ab51	-0.19498946
123	0xbdf392fd	-0.1189327
124	0xbe726715	-0.23672135
125	0xbe56282d	-0.20913763
126	0x3da4b91d	0.0804312
127	0x3dcf9195	0.101351894
128	0x3d088038	0.033325404
129	0xbe1ab62d	-0.15108557
130	0x3dc0e6cf	0.09419023
131	0xbd6755aa	-0.05647818
132	0xbe539c44	-0.2066508
133	0xbe1eb88c	-0.15500087
134	0xbd768a44	-0.060190454
135	0xbe523a1d	-0.20529981
136	0xbdedcf44	-0.116117984
137	0x3d0e7f6e	0.034789495
138	0xbc3c8498	-0.011506222
139	0x3e1c219b	0.15247194
140	0x3e00473b	0.12527172
141	0x3e414855	0.18875249
142	0xbd123297	-0.035692777
143	0xbe86bcbf	-0.26315877
144	0x3ddf9020	0.109161615
145	0xbe853c57	-0.26022598
146	0x3e7bc967	0.24588548
147	0xbe644dea	-0.22295347
148	0xbdaf6eaa	-0.08566029
149	0x3e6f67b1	0.23379399
150	0xbe2aacf5	-0.1666754
151	0x3e332838	0.17495811
152	0x3e58df9d	0.21179052
153	0xbe6b05cf	-0.22951435
154	0xbe60501e	-0.21905562
155	0xbd97e43e	-0.074165806
156	0xbdd0924f	-0.10184156
157	0xbe8a6c74	-0.27035868
158	0x3b21622e	0.002462517
159	0x3d73df92	0.059539385
160	0xbc91bd71	-0.017790528
161	0xbe237d9a	-0.15965882
162	0x3e00eafc	0.1258964
163	0xbe17f8a8	-0.14840949
164	0xbe14e463	-0.14540248
165	0x3d851054	0.06497255
166	0xbe189564	-0.14900738
167	0x3e271ef3	0.163204
168	0xbccfd195	-0.025368491
169	0x3dedef00	0.11617851
170	0x3e1f7faf	0.15576051
171	0xbdeadc82	-0.1146784
172	0xbe6ad6b8	-0.22933471
173	0xbcb7f591	-0.022455962
174	0x3daf45ca	0.08558233
175	0xbe058672	-0.13039568
176	0x3e496920	0.19669008
177	0xbdeae5dd	-0.11469624
178	0xbd82eb4b	-0.06392535
179	0xbe300048	-0.17187607
180	0xbcd9bbbe	-0.02657878
181	0x3e207abf	0.15671824
182	0x3e0b569f	0.13607262
183	0x3cdf2fec	0.02724453
184	0x3e782769	0.24233784
185	0xbe0ad734	-0.13558656
186	0x3daa747c	0.08322999
187	0xbdb5c590	-0.08875573
188	0x3da6ec52	0.08150543
189	0xbc68950a	-0.01419569
190	0x3e11a762	0.14224008
191	0xbe1a15d1	-0.15047385
192	0x3c2415b1	0.010014937
193	0x3e39a6a8	0.1812998
194	0xbd97581a	-0.07389851
195	0xbd49157e	-0.049092762
196	0x3e371911	0.17880656
197	0x3d69725a	0.05699382
198	0x3d7670a6	0.060166024
199	0x3e0c199e	0.13681647
200	0xbe1fce3c	-0.15606016
201	0x38dbc199	0.00010478794
202	0xbde07dd6	-0.10961501
203	0x3cf29e9c	0.029616646
204	0x3e14ebd8	0.14543092
205	0xbd7ffff7	-0.062499966
206	0x3dad31d1	0.08456767
207	0x3e523dd2	0.20531395
208	0x3c2f7da6	0.010711109
209	0xbe3c8ffd	-0.18414302
210	0xbc864065	-0.016388128
211	0x3e5eb719	0.21749534
212	0xbd24ac77	-0.040203538
213	0xbe2c20c5	-0.16809376
214	0xbdc0556c	-0.09391293
215	0x3e4c0143	0.19922356
216	0xbc37a6f2	-0.011209236
217	0xbde3819a	-0.11108704
218	0xbca5487d	-0.020176167
219	0x3da58797	0.08082502
220	0x3e2155e6	0.15755424
221	0xbe5f32dd	-0.21796747
222	0xbe52e7a0	-0.2059617
223	0xbd5726a3	-0.05252708
224	0xbe7e9407	-0.24861155

network.9.bias f4 [15]
0	0xbda520d3	-0.08062901
1	0xbe73a9c7	-0.23795234
2	0x3e2d37b3	0.16915779
3	0xbd01db41	-0.031703237
4	0x3dd926ef	0.10603129
5	0xbe833ac2	-0.25630766
6	0xbd626522	-0.05527223
7	0xbe592aaf	-0.21207689
8	0xbe214c66	-0.157518
9	0xbe417f9a	-0.18896332
10	0x3ca4fe5e	0.020140823
11	0x3d74f5a7	0.059804585
12	0xbd172f50	-0.036910355
13	0x3e600667	0.21877442
14	0xbb9b7f76	-0.004745419

network.10.weight f4 [15]
0	0x3f81ae57	1.0131329
1	0x3f7c0305	0.9844211
2	0x3f7ae799	0.9800964
3	0x3f80df89	1.0068218
4	0x3f7c8c7a	0.9865185
5	0x3f83ddae	1.0302026
6	0x3f7a34a2	0.9773656
7	0x3f828a68	1.0198488
8	0x3f8083c9	1.0040218
9	0x3f81ecbd	1.0150372
10	0x3f7c9036	0.9865755
11	0x3f7984d8	0.9746833
12	0x3f7ae157	0.9800009
13	0x3f835d22	1.0262797
14	0x3f7ad65a	0.97983325

network.10.bias f4 [15]
0	0x3c36d16d	0.011158329
1	0xbca389f6	-0.019963246
2	0x3c85bb87	0.016324772
3	0x3c875a83	0.016522652
4	0xbc841885	-0.016124973
5	0xbca42d6d	-0.020041192
6	0xbc731d42	-0.014838519
7	0x3c3f0d60	0.011660904
8	0xbc7f9394	-0.01559915
9	0xbc36713e	-0.0111353975
10	0x3d017c77	0.03161284
11	0x3ccaaecd	0.024741555
12	0x3caaf4f2	0.020868752
13	0x3caedef8	0.021346554
14	0x3bbff224	0.005857723

network.12.weight f4 [12, 15]
0	0xbd053891	-0.03252465
1	0x3d6a6ae4	0.057230845
2	0xbd16809a	-0.036743738
3	0xbe7cf569	-0.24702992
4	0xbe1498af	-0.14511369
5	0xbd1e62c5	-0.038668413
6	0xbd8ca191	-0.06866754
7	0xbe2648ce	-0.1623871
8	0xbdb2f650	-0.08738387
9	0x3e805632	0.25065762
10	0x3db1ea7d	0.08687303
11	0xbce78bce	-0.028264906
12	0xbd8bf437	-0.0683369
13	0x3dac96e4	0.084272176
14	0x3cfa7d4c	0.030577324
15	0x3e73d957	0.23813377
16	0x3da0096d	0.07814298
17	0xbe270056	-0.16308722
18	0xbe2cc3a9	-0.16871513
19	0xbe0bc68e	-0.13649961
20	0x3db06cb7	0.08614486
21	0x3c852000	0.01625061
22	0x3dbf48ee	0.09340082
23	0xbdac0e8c	-0.08401212
24	0xbd967930	-0.073473334
25	0xbcf5c871	-0.030002804
26	0xbe5a3bff	-0.21311949
27	0x3e5ce28e	0.21570799
28	0xbd72ce5f	-0.059278842
29	0xbe70b8ef	-0.23508047
30	0xbdd75f02	-0.10516168
31	0x3e76e93f	0.24112414
32	0xbdc5b977	-0.09654515
33	0x3be9fac6	0.00714049
34	0x3e5dd9b9	0.21665086
35	0xbd04e29e	-0.03244268
36	0x3e04759c	0.1293549
37	0xbe08ffb3	-0.13378792
38	0x3e81e3f7	0.25369236
39	0x3e18e797	0.14932095
40	0xbe8317df	-0.2560415
41	0xbd9e43b5	-0.07727758
42	0x3da43a27	0.08018904
43	0xbe7366be	-0.23769662
44	0xbc7d678f	-0.015466585
45	0xbe33fe3f	-0.17577456
46	0xbe3b3806	-0.1828309
47	0x3c196e8b	0.009364734
48	0x3e5595de	0.20857951
49	0xbd206638	-0.039159983
50	0xbcf19341	-0.029489161
51	0xbd34dfda	-0.044158794
52	0x3e09ff85	0.13476379
53	0x3d3d1ef5	0.0461721
54	0x3e16a93f	0.14713
55	0x3ca99249	0.020699637
56	0x3e24f75c	0.16109985
57	0xbde8bb8f	-0.11363899
58	0x3e48a52b	0.19594257
59	0xbd91b79e	-0.071151
60	0x3d7f49d2	0.06232626
61	0xbd41cccc	-0.04731445
62	0xbc511fe9	-0.012763956
63	0x3e04b86a	0.12960973
64	0x3e425e62	0.18981317
65	0x3e1915db	0.14949743
66	0x3e0a2e06	0.13494119
67	0xbd4cd2f0	-0.050005853
68	0xbc2ab394	-0.010418791
69	0x3ca7986e	0.020458426
70	0x3de2ce9b	0.11074563
71	0xbe5c9b26	-0.2154356
72	0xbe71df9b	-0.23620455
73	0xbcd7850d	-0.02630856
74	0xbd4f8d10	-0.050671637
75	0xbd40d105	-0.047074337
76	0x3e606cec	0.2191655
77	0x3df48657	0.11939686
78	0x3d0d19c9	0.03444842
79	0xbdbd32ad	-0.09238181
80	0x3de52633	0.111889265
81	0xbd8d5a2d	-0.06901965
82	0x3c941dd1	0.018080624
83	0xbe3775bd	-0.17916007
84	0xbd6c23e9	-0.057651434
85	0xbdfeacaf	-0.124352805
86	0x3d55ef97	0.052230444
87	0xbd04bfb1	-0.032409374
88	0xbe3c9964	-0.18417889
89	0xbe3153b5	-0.17317088
90	0x3e865ead	0.26244107
91	0xbd7de491	-0.061985556
92	0x3c5af708	0.013364561
93	0x3e0f2bb7	0.1398152
94	0xbd0278ec	-0.0318536
95	0x3e2cdaaa	0.16880289
96	0xbe19df00	-0.15026474
97	0x3e008197	0.12549435
98	0xbd1ba519	-0.037999246
99	0xbe5e1a77	-0.21689783
100	0x3d9b9376	0.07596485
101	0xbe2ae9a4	-0.1669069
102	0xbe033445	-0.12812908
103	0xbe6c6e4a	-0.23088947
104	0x3e2addae	0.16686127
105	0x3c368afb	0.011141534
106	0xbd59d080	-0.053177357
107	0x3e212983	0.15738492
108	0x3dd6e6be	0.10493229
109	0xbd9586bb	-0.073010884
110	0xbe877a46	-0.26460475
111	0x3e15bea9	0.14623512
112	0x3ded6202	0.11590959
113	0xbd555eb2	-0.05209226
114	0x3e60d892	0.21957615
115	0x3e254a90	0.16141725
116	0x3e04b4eb	0.1295964
117	0x3e83ddb0	0.25755072
118	0x3d579813	0.052635264
119	0x3cdb6cf4	0.026785351
120	0xbe26c196	-0.16284785
121	0xbd422145	-0.04739501
122	0xbdd543dc	-0.10413334
123	0x3d802c95	0.06258503
124	0xbe74abcd	-0.23893662
125	0xbe18c098	-0.14917219
126	0xbe37edc8	-0.179618
127	0xbbc0fa4f	-0.005889214
128	0xbde3dcba	-0.111260846
129	0xbd36a61c	-0.044592008
130	0x3db33871	0.08751
131	0x3ccfc79a	0.025363732
132	0x3d51c71c	0.051215276
133	0xbdfc3073	-0.123139285
134	0x3daa411e	0.08313201
135	0x3e4097fb	0.18807976
136	0xbde682c2	-0.11255409
137	0x3c615387	0.013752825
138	0x3e2280ba	0.15869418
139	0x3e3b1440	0.18269444
140	0xbe5d3727	-0.2160307
141	0x3d3766e9	0.044775877
142	0xbd2fdcf8	-0.04293534
143	0xbdedc2fd	-0.11609457
144	0xbe376957	-0.17911278
145	0x3ca85aaf	0.020551054
146	0x3e37045f	0.17872761
147	0x3e501cf7	0.20323549
148	0x3e85e2a8	0.26149487
149	0xbd9e399c	-0.07725832
150	0x3e1b3a2d	0.15158911
151	0xbe1927b0	-0.14956546
152	0x3da7d799	0.08195419
153	0x3e0fdc39	0.14048852
154	0xbde24d24	-0.1104987
155	0x3d5ea82e	0.054359607
156	0xbdabca17	-0.08388155
157	0xbe688966	-0.22708663
158	0xbe2b87f2	-0.16751078
159	0xbe332986	-0.17496309
160	0xbddef023	-0.10885646
161	0x3da77b8e	0.08177863
162	0xbddf3275	-0.10898296
163	0x3e4d4493	0.2004569
164	0x3e50dd87	0.20397006
165	0x3e8afdea	0.27146846
166	0x3e3d0c17	0.18461643
167	0x3e0406b2	0.12893179
168	0x3e49f39a	0.19721833
169	0xbcf5d39d	-0.030008132
170	0xbd8c62fd	-0.06854818
171	0x3e2505f1	0.16115548
172	0x3db46b92	0.0880958
173	0xbe83b2f8	-0.2572248
174	0x3d78ac11	0.06071097
175	0xbdaf7ebc	-0.085690945
176	0xbe36aa18	-0.17838323
177	0xbd4a6615	-0.04941376
178	0x3daf1e03	0.08550646
179	0x3daecb0a	0.085348204

network.12.bias f4 [12]
0	0xbdb56d10	-0.08858693
1	0x3e6d8490	0.231951
2	0xbc6c77c2	-0.014432849
3	0xbd776f3a	-0.06040881
4	0xbe4da720	-0.20083284
5	0xbe49e82a	-0.1971747
6	0x3e0019ea	0.12509885
7	0xbc63eb9d	-0.013911155
8	0x3e3733e2	0.17890885
9	0xbe39c75e	-0.18142459
10	0x3e1dd067	0.1541153
11	0x3b32478d	0.0027203292

exp_avg f4 [15, 12]
0	0xbb7eb39e	-0.0038864384
1	0xba79d0b8	-0.00095296977
2	0xba64cea8	-0.0008728304
3	0xbb218280	-0.0024644434
4	0xb8fa7fb1	-0.00011944713
5	0xbb2a03b8	-0.0025942158
6	0xba482400	-0.0007634759
7	0xba4b1140	-0.0007746406
8	0xb8be4065	-9.0719004e-05
9	0xba0d1fe9	-0.0005383478
10	0x386a0c69	5.5801505e-05
11	0xbb2e6ad6	-0.0026613972
12	0x3ab17a21	0.0013540426
13	0x399a6421	0.0002944777
14	0x3a0a82b9	0.00052837614
15	0x3a4536b0	0.00075231027
16	0x382d648a	4.134005e-05
17	0xb751da95	-1.2508263e-05
18	0x396709b1	0.00022033487
19	0x3a230c93	0.000621983
20	0xb9090864	-0.00013068464
21	0x3940a1b5	0.00018370787
22	0xb8c416e8	-9.350275e-05
23	0x3a50f12e	0.0007970509
24	0x3b8a32cf	0.0042174826
25	0x3ab87b26	0.0014074787
26	0x3b0ce23a	0.0021497146
27	0x3b19b97c	0.0023456505
28	0x391f2429	0.00015176892
29	0x3ac28efa	0.0014843636
30	0x3a4fd163	0.00079276244
31	0x39cbd5fe	0.00038878614
32	0xbb3c2e34	-0.0028714063
33	0x3a04a8ec	0.0005060572
34	0xb9d35b6b	-0.00040313168
35	0x3b00942d	0.001961957
36	0xba6b5a9e	-0.00089780416
37	0xba82d171	-0.0009980631
38	0xbaf995ae	-0.00190418
39	0xbaca437d	-0.001543149
40	0xb8cbdd2e	-9.720992e-05
41	0xba0fa385	-0.00054793834
42	0xba1668b5	-0.00057376485
43	0x39a1ee29	0.00030885756
44	0x39142d36	0.00014131222
45	0xb9ce6c01	-0.0003937185
46	0xb7c7fd2f	-2.3840546e-05
47	0xba1fb121	-0.0006091763
48	0x3ad22fc2	0.0016035961
49	0x3a05cfaa	0.0005104492
50	0x3a1c98c0	0.0005973689
51	0x3aaa2e52	0.0012983775
52	0x388a488b	6.593865e-05
53	0x3aff6041	0.0019483642
54	0x39dc58e1	0.0004202789
55	0xba02b0e4	-0.0004985465
56	0x36c6a812	5.920426e-06
57	0x39929fc4	0.00027966325
58	0x391c1871	0.00014886424
59	0x3a8f7c42	0.0010947066
60	0xb885e2b4	-6.384161e-05
61	0x38ebda08	0.00011246285
62	0x3a7b9846	0.00095975806
63	0x396b689b	0.00022450315
64	0x37f12b25	2.874953e-05
65	0xba499d90	-0.000769102
66	0x38bfd16a	9.146596e-05
67	0xba1097bf	-0.0005515776
68	0x39d2ecba	0.00040230696
69	0x388a8f94	6.607096e-05
70	0x385c10da	5.246778e-05
71	0xba3a390f	-0.00071038393
72	0xb95f736b	-0.00021309934
73	0xb96bf903	-0.0002250411
74	0xb80a7ce2	-3.301807e-05
75	0xb85ff447	-5.3394844e-05
76	0xb7e56251	-2.734471e-05
77	0xb9bba435	-0.00035789763
78	0xb81d4705	-3.749786e-05
79	0xb9b6796e	-0.00034804217
80	0x39b7997f	0.00035018843
81	0xb8e3f0e3	-0.00010869072
82	0xb6749dce	-3.6450688e-06
83	0x36bc00f1	5.602946e-06
84	0x3a985d29	0.0011624444
85	0x39d69b26	0.00040932855
86	0xb934adc0	-0.00017230865
87	0x3aba902b	0.0014233639
88	0x3822f511	3.8852046e-05
89	0x3b5dde8f	0.003385458
90	0x39e33f58	0.0004334401
91	0x3937aed4	0.00017517369
92	0xb9624bf7	-0.00021581339
93	0x399c3fa8	0.00029802066
94	0x390d31ce	0.00013465362
95	0x3ae9fe3e	0.0017852259
96	0x3ac7539c	0.0015207413
97	0x39dcbe3b	0.00042103403
98	0xba1fec09	-0.00061005406
99	0x3a010a14	0.0004922461
100	0x37f7cc17	2.9539731e-05
101	0x3b124ea3	0.0022324703
102	0x392491aa	0.00015694523
103	0xb98263f5	-0.00024870006
104	0xba37525d	-0.0006993169
105	0x38db4c70	0.00010456971
106	0xb94c532d	-0.00019485941
107	0x3a35fe9e	0.0006942543
108	0xbac744f9	-0.001520305
109	0xb99db732	-0.00030081865
110	0xba503c13	-0.0007943522
111	0xba321372	-0.0006793059
112	0xb84cd83f	-4.8838785e-05
113	0xb9c05e5c	-0.00036691397
114	0xb9637f08	-0.0002169573
115	0x39e971b6	0.00044525944
116	0x39e098e0	0.0004283851
117	0xb9092734	-0.00013079942
118	0xb8c850c6	-9.5517884e-05
119	0x39bbb0f3	0.00035799257
120	0x39c76cda	0.00038037339
121	0x39cb27ab	0.00038748732
122	0x3a281d4d	0.00064130576
123	0x39f5a7ad	0.0004685497
124	0x3819ad0d	3.663921e-05
125	0xb8b1c143	-8.4760155e-05
126	0x393cbc1e	0.00017999156
127	0xb8ed9986	-0.000113296366
128	0x378acaed	1.6545377e-05
129	0x39256a65	0.00015775261
130	0xb85f9edf	-5.3315303e-05
131	0xb9dd8d48	-0.00042257668
132	0xba4d71e5	-0.0007837101
133	0x3a397f5d	0.00070761685
134	0x3a95eace	0.0011437775
135	0x3a1e4228	0.000603708
136	0x383082d6	4.208352e-05
137	0x399d4c27	0.0003000211
138	0x399288c9	0.00027949203
139	0xba0d9ade	-0.00054018
140	0x3a846d88	0.0010103444
141	0x392017f4	0.00015267712
142	0x399e14aa	0.00030151504
143	0xba21a0ee	-0.0006165643
144	0xba656dd3	-0.0008752022
145	0xba33dcee	-0.0006861229
146	0xba222636	-0.00061855034
147	0xbaa22a2d	-0.0012372189
148	0xb885de94	-6.3833926e-05
149	0xbb00df4e	-0.001966435
150	0xb9dc8a6f	-0.0004206481
151	0xb90d2c14	-0.00013463228
152	0x3ab051ea	0.0013452147
153	0xb99b6795	-0.00029641078
154	0x3910e0ea	0.00013816697
155	0xba96242c	-0.0011454872
156	0xb937a5e5	-0.0001751404
157	0xb95f8890	-0.00021317811
158	0x39245740	0.00015672762
159	0xb98ee7e5	-0.00027257125
160	0x36832f45	3.909607e-06
161	0xba54873c	-0.00081073097
162	0xb8c09af9	-9.184139e-05
163	0x3a4b27c5	0.00077497616
164	0xb8c5453d	-9.406589e-05
165	0xb5b5fbd0	-1.3558838e-06
166	0x38e76034	0.000110328576
167	0xb80183b2	-3.0878648e-05
168	0xbaeef661	-0.0018231386
169	0xba6526ad	-0.000874142
170	0xba9994e9	-0.0011717352
171	0xbab213ed	-0.0013586261
172	0xb8ac463a	-8.21468e-05
173	0xbaf13204	-0.0018401747
174	0xb9f6b0dd	-0.0004705255
175	0x3a01a6ae	0.00049457967
176	0x39d2a71e	0.00040178833
177	0xb9926110	-0.00027919607
178	0xb89b2868	-7.398502e-05
179	0xba032857	-0.00050032645

exp_avg_sq f4 [15, 12]
0	0x3a14c717	0.00056754187
1	0x36e5b896	6.8462205e-06
2	0x3844eea7	4.6952304e-05
3	0x390bea4e	0.00013343358
4	0x3466f57d	2.1509727e-07
5	0x38d6afe1	0.00010237075
6	0x3736c2c3	1.0893392e-05
7	0x37f08040	2.866995e-05
8	0x371207ed	8.7041235e-06
9	0x3634219a	2.6841649e-06
10	0x36640450	3.3977158e-06
11	0x37e278b6	2.699751e-05
12	0x390be219	0.00013340301
13	0x3747cc47	1.1908886e-05
14	0x380bbfad	3.3318694e-05
15	0x381d7995	3.754495e-05
16	0x344aecf7	1.8898923e-07
17	0x373071d5	1.0516921e-05
18	0x36836ccc	3.91677e-06
19	0x373ccdc5	1.1253583e-05
20	0x379755b6	1.8040515e-05
21	0x3649f29e	3.0092556e-06
22	0x36421b48	2.8924132e-06
23	0x36cf7450	6.1826213e-06
24	0x3ab3e648	0.0013725245
25	0x390fda59	0.00013718884
26	0x39cfd0d1	0.00039637697
27	0x3983e333	0.00025155544
28	0x35df25a4	1.662575e-06
29	0x3923cb15	0.00015620545
30	0x37fe79ed	3.0335936e-05
31	0x3807532f	3.226398e-05
32	0x39b34e66	0.00034199952
33	0x3746325b	1.1813444e-05
34	0x35899b94	1.0252575e-06
35	0x37df5c73	2.6626722e-05
36	0x3988ec45	0.00026115976
37	0x389d7423	7.5079755e-05
38	0x3a163a09	0.0005730694
39	0x39e31112	0.00043309532
40	0x35ccd145	1.526009e-06
41	0x383b3cd5	4.464093e-05
42	0x386a7a60	5.5903918e-05
43	0x372efa57	1.0429495e-05
44	0x37e1ba81	2.6908938e-05
45	0x3804f896	3.1702766e-05
46	0x36430f75	2.9066262e-06
47	0x37b5c5ad	2.1668931e-05
48	0x38b29bc5	8.516716e-05
49	0x377823eb	1.4790315e-05
50	0x3844f5dc	4.6959016e-05
51	0x3902a058	0.00012457499
52	0x346026bd	2.0875719e-07
53	0x39881093	0.0002595229
54	0x37726927	1.4448807e-05
55	0x36e6156d	6.8570284e-06
56	0x378ed467	1.7026627e-05
57	0x36b82398	5.487771e-06
58	0x35afdfbc	1.3103631e-06
59	0x37480fa1	1.1924568e-05
60	0x3837b23a	4.3796586e-05
61	0x378d5905	1.6849963e-05
62	0x3901ff00	0.00012397394
63	0x380ccf3c	3.3571603e-05
64	0x342963c9	1.5775653e-07
65	0x39259735	0.00015791955
66	0x3686d2a9	4.0180353e-06
67	0x38124942	3.487734e-05
68	0x3711681f	8.666916e-06
69	0x369e5b0e	4.719367e-06
70	0x36c61188	5.9029007e-06
71	0x369b3d90	4.626527e-06
72	0x3788489f	1.624628e-05
73	0x3586fbd3	1.0057068e-06
74	0x365d2f4d	3.29591e-06
75	0x36a0a4a5	4.7875387e-06
76	0x33af64a8	8.167382e-08
77	0x36ee12d0	7.095143e-06
78	0x33dd9062	1.03173775e-07
79	0x37abcd5d	2.0480418e-05
80	0x36ffef3e	7.6274437e-06
81	0x358c92f8	1.0473586e-06
82	0x358b830f	1.039445e-06
83	0x3649e6df	3.0085719e-06
84	0x384656c8	4.72877e-05
85	0x3734cc25	1.0776367e-05
86	0x37a8992f	2.0098492e-05
87	0x38a36bac	7.792501e-05
88	0x33098861	3.2021834e-08
89	0x3998e39f	0.0002916129
90	0x3698be97	4.5521406e-06
91	0x37068dc3	8.020029e-06
92	0x382b6ff4	4.087384e-05
93	0x3534e67d	6.739063e-07
94	0x372a3212	1.01444475e-05
95	0x37b96a24	2.2103144e-05
96	0x39858b74	0.00025471637
97	0x38247f68	3.9219303e-05
98	0x36d023d0	6.203052e-06
99	0x37491c51	1.19871265e-05
100	0x33b8e3ee	8.609628e-08
101	0x398012da	0.00024428108
102	0x354cf1de	7.6347885e-07
103	0x3807e425	3.2398984e-05
104	0x386327b4	5.4157994e-05
105	0x35d4b96d	1.5849197e-06
106	0x35de60d2	1.6568467e-06
107	0x389a63f7	7.361912e-05
108	0x3711d2a8	8.691721e-06
109	0x35e1f63e	1.6835472e-06
110	0x383b2e9f	4.4627694e-05
111	0x36941563	4.4132335e-06
112	0x335f15f4	5.19412e-08
113	0x3709924d	8.1999e-06
114	0x34e48ff1	4.257304e-07
115	0x37dab9b2	2.6074096e-05
116	0x384612e8	4.7224486e-05
117	0x33e1b9d0	1.0511178e-07
118	0x35e8aa90	1.7334987e-06
119	0x3623533d	2.4337344e-06
120	0x390bb820	0.00013324665
121	0x35be79de	1.4191571e-06
122	0x36c9d200	6.014714e-06
123	0x35d5c709	1.5927664e-06
124	0x321e0e57	9.200071e-09
125	0x36b62593	5.428397e-06
126	0x33fdfb80	1.1826978e-07
127	0x371d1e13	9.364931e-06
128	0x36d8adf7	6.457554e-06
129	0x356ec6b1	8.8951043e-07
130	0x356abc87	8.7446136e-07
131	0x36c845f4	5.968608e-06
132	0x3890fb10	6.913219e-05
133	0x36552daf	3.1766065e-06
134	0x37ee69c7	2.8421067e-05
135	0x36a781da	4.9921046e-06
136	0x31ed68fa	6.9095423e-09
137	0x3736cfcf	1.089643e-05
138	0x359db9f7	1.1751534e-06
139	0x38288a21	4.0182964e-05
140	0x3910244c	0.00013746432
141	0x35165cf8	5.601464e-07
142	0x36ef9550	7.1401373e-06
143	0x3721f2ce	9.65288e-06
144	0x37e23c69	2.696943e-05
145	0x36ad824a	5.1709694e-06
146	0x3792c6c4	1.7497114e-05
147	0x38173647	3.6051755e-05
148	0x3392305a	6.80745e-08
149	0x38eb1b96	0.000112108115
150	0x365dbdde	3.3042083e-06
151	0x36e4b2e4	6.815755e-06
152	0x37aafd0f	2.0383419e-05
153	0x35bfd4be	1.4292525e-06
154	0x3609df48	2.0544558e-06
155	0x36f2620d	7.2235766e-06
156	0x37a19989	1.9264191e-05
157	0x37235814	9.736064e-06
158	0x36892657	4.0873815e-06
159	0x3897ddcf	7.241556e-05
160	0x31ab966f	4.9938573e-09
161	0x38523651	5.0118488e-05
162	0x366817fd	3.4584657e-06
163	0x3802d418	3.1191943e-05
164	0x36e57b07	6.839054e-06
165	0x349834d1	2.8350635e-07
166	0x359ec69b	1.1829719e-06
167	0x379260b8	1.7449594e-05
168	0x395ecc23	0.00021247617
169	0x386a12fb	5.5807624e-05
170	0x37b61bc1	2.1709015e-05
171	0x3855049b	5.0787447e-05
172	0x344f8b97	1.932916e-07
173	0x39302c9f	0.0001680129
174	0x36b66467	5.435711e-06
175	0x383f0421	4.5541794e-05
176	0x37f5e6e0	2.9313785e-05
177	0x35a0d0bd	1.198168e-06
178	0x370b8300	8.315546e-06
179	0x3721fc74	9.655127e-06

max_exp_avg_sq f4 [15, 12]
0	0x3a262a19	0.00063386705
1	0x36f3783e	7.2559624e-06
2	0x385a187f	5.1998064e-05
3	0x3918efcb	0.0001458518
4	0x347a75c1	2.3325903e-07
5	0x38e873b3	0.00011084173
6	0x3746bb40	1.1845317e-05
7	0x38047740	3.1582313e-05
8	0x37279c3e	9.990354e-06
9	0x363f9a54	2.8551049e-06
10	0x3681fdf0	3.874062e-06
11	0x37ea571d	2.7935539e-05
12	0x391ba50a	0.00014843434
13	0x3760e863	1.3405547e-05
14	0x381b2cb0	3.69965e-05
15	0x382e61f7	4.157607e-05
16	0x34630959	2.1144423e-07
17	0x37493f78	1.1995311e-05
18	0x3691eab0	4.348658e-06
19	0x374ed149	1.2327285e-05
20	0x37a90213	2.0147336e-05
21	0x3661aaa2	3.3626934e-06
22	0x365bc780	3.2749667e-06
23	0x36db8f66	6.5434024e-06
24	0x3ac878c4	0.001529478
25	0x391ff495	0.00015254536
26	0x39e63530	0.00043908646
27	0x39902e3a	0.00027500262
28	0x35f7acfc	1.8453279e-06
29	0x393685fe	0.00017406789
30	0x380b7506	3.324917e-05
31	0x38164072	3.5822806e-05
32	0x39c28424	0.00037101016
33	0x3758dd33	1.2926105e-05
34	0x358d83e6	1.0543706e-06
35	0x37e7a7f4	2.7615555e-05
36	0x399ae213	0.00029541607
37	0x38ae6de0	8.3174324e-05
38	0x3a291836	0.0006450446
39	0x39feedb1	0.0004862375
40	0x35e64522	1.7156456e-06
41	0x385034b6	4.9640155e-05
42	0x3883ab5e	6.2784864e-05
43	0x3745dfdb	1.1794235e-05
44	0x37fc8124	3.0100877e-05
45	0x3815dd6e	3.573059e-05
46	0x365dc096	3.3043666e-06
47	0x37c328f4	2.3264882e-05
48	0x38c55459	9.409403e-05
49	0x3788e9d0	1.632134e-05
50	0x385ca883	5.2609026e-05
51	0x3911b8bd	0.00013897098
52	0x3477dda5	2.3084301e-07
53	0x399851ae	0.00029052555
54	0x3787449d	1.6125205e-05
55	0x36fb59ad	7.4908226e-06
56	0x37a2e958	1.9420564e-05
57	0x36ccf0a2	6.107687e-06
58	0x35c2af96	1.4505229e-06
59	0x375492e5	1.2670386e-05
60	0x3856096f	5.103036e-05
61	0x37a8538f	2.006607e-05
62	0x39141e0c	0.00014125573
63	0x38214fef	3.8459835e-05
64	0x34415e9c	1.8008944e-07
65	0x393f7ed0	0.00018262421
66	0x3699e58d	4.5864786e-06
67	0x3824209d	3.913102e-05
68	0x37219b28	9.632473e-06
69	0x36b66551	5.4358175e-06
70	0x36e2a5f5	6.754645e-06
71	0x36acf3be	5.154375e-06
72	0x37a01419	1.9082845e-05
73	0x3592ef1e	1.094744e-06
74	0x367e6b6a	3.7911473e-06
75	0x36bb9c37	5.59122e-06
76	0x33c83965	9.323666e-08
77	0x37039f34	7.845276e-06
78	0x33ff7b62	1.1896806e-07
79	0x37c6306c	2.3625988e-05
80	0x370f1a5f	8.529604e-06
81	0x359fefc9	1.191621e-06
82	0x35a1b540	1.2048185e-06
83	0x3665385b	3.4156462e-06
84	0x38583768	5.1550014e-05
85	0x37495c6c	1.2002052e-05
86	0x37bc6279	2.2457201e-05
87	0x38b387f8	8.560711e-05
88	0x3313f2f5	3.4447073e-08
89	0x39a7a8f0	0.0003197859
90	0x36a5c3d8	4.9401824e-06
91	0x3713e0f1	8.814256e-06
92	0x384798aa	4.7587477e-05
93	0x353efed1	7.115132e-07
94	0x374175d0	1.1531127e-05
95	0x37c4c19a	2.3455174e-05
96	0x39986f49	0.00029074613
97	0x383eda2b	4.5502715e-05
98	0x36ea9339	6.9908824e-06
99	0x375b53a2	1.30728895e-05
100	0x33d4a1e5	9.901468e-08
101	0x398f4227	0.00027324373
102	0x355d73ae	8.249725e-07
103	0x381a180a	3.673885e-05
104	0x387673f8	5.8758975e-05
105	0x35f8d3ac	1.8539045e-06
106	0x35ed63ed	1.7686958e-06
107	0x38b3c118	8.571352e-05
108	0x37173ff1	9.015189e-06
109	0x35f59f14	1.830022e-06
110	0x3852f775	5.0298364e-05
111	0x369e1869	4.7116087e-06
112	0x33744c6c	5.6880182e-08
113	0x37247438	9.802221e-06
114	0x34f2d1ee	4.5228757e-07
115	0x37f79016	2.951179e-05
116	0x38666461	5.492976e-05
117	0x33ed0116	1.103637e-07
118	0x36052a1c	1.9843055e-06
119	0x36334a13	2.6716195e-06
120	0x3925d8ed	0.00015816437
121	0x35cc5b8f	1.5225831e-06
122	0x36e96e79	6.956802e-06
123	0x35eca8b1	1.7632466e-06
124	0x322784bf	9.750862e-09
125	0x36cda57d	6.1287415e-06
126	0x3403d418	1.2277485e-07
127	0x3731b114	1.0591251e-05
128	0x36ef263f	7.1272075e-06
129	0x3586afe6	1.0034971e-06
130	0x3584ffe7	9.909244e-07
131	0x36ea6805	6.985853e-06
132	0x38a202f7	7.725314e-05
133	0x366155e5	3.357761e-06
134	0x38075387	3.22643e-05
135	0x36b8b8be	5.505134e-06
136	0x31f8106b	7.2196165e-09
137	0x3758f2ca	1.2931132e-05
138	0x35ad2072	1.2898947e-06
139	0x38468560	4.7331094e-05
140	0x391fc75d	0.0001523769
141	0x35260107	6.1841314e-07
142	0x3705c2b4	7.972751e-06
143	0x3735b3f2	1.08303375e-05
144	0x37f63f44	2.9354946e-05
145	0x36b862b3	5.4951174e-06
146	0x379f51b9	1.8992332e-05
147	0x38231001	3.8877133e-05
148	0x339cc48e	7.300069e-08
149	0x3900f7d2	0.00012299352
150	0x366e0763	3.5469063e-06
151	0x36f9e47c	7.4473774e-06
152	0x37b50223	2.1577876e-05
153	0x35cd62c8	1.5302439e-06
154	0x361962fd	2.2856395e-06
155	0x36fbaec7	7.5007297e-06
156	0x37b48bdb	2.1522797e-05
157	0x37381f30	1.0974516e-05
158	0x3697b407	4.5211086e-06
159	0x38ab3b44	8.1649545e-05
160	0x31bdb6e6	5.521417e-09
161	0x386b01fd	5.6030218e-05
162	0x3681ab75	3.86446e-06
163	0x38184188	3.6300655e-05
164	0x36fc99aa	7.528074e-06
165	0x34a998bf	3.158984e-07
166	0x35acba77	1.2869267e-06
167	0x37aa6804	2.0314015e-05
168	0x39768897	0.00023511272
169	0x38834433	6.25927e-05
170	0x37c38747	2.3308805e-05
171	0x386822d7	5.5345557e-05
172	0x3462d56a	2.112553e-07
173	0x39451939	0.0001879678
174	0x36c66ce3	5.913536e-06
175	0x386169f5	5.374286e-05
176	0x3809ed40	3.28843e-05
177	0x35ac8fb6	1.2856824e-06
178	0x37200cfa	9.5397645e-06
179	0x372fca95	1.047798e-05

exp_avg f4 [15]
0	0xbada02b0	-0.0016632881
1	0x3a170cea	0.0005762117
2	0x3b017466	0.0019753217
3	0xbabab5ce	-0.0014244856
4	0x3a6d3485	0.00090486585
5	0x39cd3a36	0.00039144018
6	0xb8a31cd7	-7.7778175e-05
7	0x3a3bd6db	0.00071655
8	0x391a68e7	0.00014725664
9	0xba215bb6	-0.00061553286
10	0x39f12261	0.00045992716
11	0x3a2f472b	0.0006686325
12	0xba649bb3	-0.0008720711
13	0xb8b9bba7	-8.8564404e-05
14	0xba8ffb10	-0.0010984857

exp_avg_sq f4 [15]
0	0x388f0efb	6.821562e-05
1	0x37e08036	2.6762584e-05
2	0x396bf226	0.00022501554
3	0x39b87aa2	0.00035186583
4	0x388b391c	6.638674e-05
5	0x382f4024	4.1782987e-05
6	0x3562319a	8.426374e-07
7	0x376be37e	1.4060059e-05
8	0x36ae0026	5.1856214e-06
9	0x36ad687a	5.1679644e-06
10	0x35e84d87	1.730791e-06
11	0x36deb8e8	6.6376415e-06
12	0x3794f6f0	1.7757964e-05
13	0x37681f8c	1.3835623e-05
14	0x37e5cce3	2.7394335e-05

max_exp_avg_sq f4 [15]
0	0x389cacce	7.470847e-05
1	0x37f9108b	2.9690817e-05
2	0x3981ce5a	0.0002475854
3	0x39cf6569	0.00039557673
4	0x389b5ea0	7.408601e-05
5	0x38485fbb	4.777287e-05
6	0x3582bfd6	9.741586e-07
7	0x377f3351	1.5211132e-05
8	0x36c01f71	5.725706e-06
9	0x36bac051	5.5656205e-06
10	0x36006bf8	1.9136332e-06
11	0x36f72ccd	7.366389e-06
12	0x37a08179	1.9133777e-05
13	0x37815ebc	1.5422112e-05
14	0x37f90afd	2.968823e-05

exp_avg f4 [15]
0	0xb9b05f60	-0.00033640396
1	0x394ccf2a	0.0001953213
2	0xba117c50	-0.0005549835
3	0x394731fe	0.00018996742
4	0x38e7496c	0.00011028614
5	0x3959ce73	0.00020771641
6	0x38ee14f3	0.000113526265
7	0x39d948e0	0.0004144376
8	0x397c51a7	0.0002406301
9	0x37285af5	1.0034758e-05
10	0x398abbc2	0.00026461302
11	0x399b1163	0.00029576858
12	0xb8df5047	-0.000106484214
13	0x39c6fab4	0.0003795229
14	0xb8bc958e	-8.992395e-05

exp_avg_sq f4 [15]
0	0x3735351d	1.0800807e-05
1	0x36a49a83	4.9055684e-06
2	0x37ccffd0	2.4437817e-05
3	0x35b5138f	1.3491243e-06
4	0x354a39f3	7.533519e-07
5	0x37379109	1.0941419e-05
6	0x37082a64	8.1161015e-06
7	0x36a5456f	4.9254663e-06
8	0x367476b5	3.642793e-06
9	0x352b402a	6.3795835e-07
10	0x3710e051	8.635297e-06
11	0x34e8d20f	4.3366205e-07
12	0x35c5a135	1.4724561e-06
13	0x371c7001	9.3244025e-06
14	0x34834221	2.4448767e-07

max_exp_avg_sq f4 [15]
0	0x374b7996	1.2128052e-05
1	0x36b8efba	5.511535e-06
2	0x37e5561c	2.7339025e-05
3	0x35c64d20	1.4774596e-06
4	0x3569159b	8.6830704e-07
5	0x375156e1	1.2477599e-05
6	0x371dabe2	9.397949e-06
7	0x36b4bd8a	5.3864833e-06
8	0x368ae132	4.1389367e-06
9	0x353fde34	7.147639e-07
10	0x3722b40c	9.697873e-06
11	0x3501f1c6	4.840807e-07
12	0x35e0240f	1.6699795e-06
13	0x37304fae	1.0508969e-05
14	0x348ca5e4	2.6197733e-07

exp_avg f4 [15]
0	0xbac76196	-0.0015211578
1	0x39809945	0.00024528257
2	0x3aa32ff3	0.0012450203
3	0xba68a8f6	-0.0008875275
4	0x3a1ffac6	0.0006102737
5	0xb95e1d57	-0.000211825
6	0xb98b4a9b	-0.0002656773
7	0x3a48573c	0.00076423935
8	0x39dfe0aa	0.00042701262
9	0xba0c45cc	-0.0005350977
10	0xb80b3365	-3.3188047e-05
11	0x38833e03	6.258117e-05
12	0xba4248df	-0.00074113713
13	0xb9d79237	-0.00041116934
14	0xba76ec99	-0.0009419411
